MNIST_experiment/init_weights.npy (npy, 58368 bytes, 1 tensors)

array f8 [728, 10]
-0.036517671032095134 -0.02828846829652945 0.03196170198397198 -0.027754270534129592 0.07056276083213957 -0.08237265998272746 0.0004178747012133499 -0.07494150315950061
0.03502596267723675 0.07086753948683457 -0.08517971022466539 -0.035928641039465845 -0.05030469794226586 -0.020658718659283523 -0.04899912914330701 0.08855485039839685
0.08978389564982571 0.0725742380699816 0.053930641177197605 0.08625044418744328 -0.08290339407984372 -0.004294752172702115 -0.05827429901456718 -0.04264930071080066
0.08421941957176428 -0.009430299860690106 0.03461721233881279 -0.05359755428659622 -0.0346873498988034 -0.032857970594340986 -0.03988888483733222 0.07947407976298294
0.03970264546174164 -0.08080653328734871 -0.021723593527289684 0.028346695523691304 -0.07719892758070193 0.02873231294917454 0.056224684230047214 0.04647990126676478
0.04940418403735915 0.0324801385494589 0.010026546544272888 0.03174874207784896 -0.0663302417825651 -0.03260340400555402 -0.07311120150085634 -0.08494118877223814
0.018756736962230736 -0.044647992484084124 0.05613765164888275 -0.08310883852350635 -0.055059495646839915 0.06832073805672902 0.013309171022953592 -0.011610032525158409
0.03968359849225815 0.043529004657383616 0.03668872628558019 0.0487063002613138 0.03856481066373228 0.00924452575939022 -0.06244822716387251 -0.06770854372355523
0.08045873275824743 -0.019437094302911476 -0.06359326237160291 -0.04570549190829809 0.06447540728946087 0.046741481706020674 0.054207375650943815 -0.0808514709288273
-0.06725485241244798 -0.05369924618166943 -0.028321546016947113 -0.06627838673806703 0.0731374209403788 0.050726803525333 -0.001964992484992989 -0.04223772609298681
-0.010257832848568849 0.0010591265901738478 -0.003404789589023474 -0.05262927329297591 -0.0032770145090047498 -0.05427796513485089 -0.07666080624099202 -0.04954811393611783
0.06131410628224761 -0.017944955617494346 0.08259215955606021 0.09000730994605184 -0.0788916642478005 0.06098454550378325 -0.04315294099902611 0.05596948206281467
-0.010086369950249113 -0.004028628368754297 -0.07644582184380702 -0.03903442703101698 0.05603161509578934 0.027745230671353566 -0.01141242310204818 -0.0589853512221048
-0.08311686664266577 0.03045531691226369 0.07151465430933383 0.02332799251977208 -0.08188170595476545 -0.07622328691619623 0.03659604396603748 0.07374807180661778
-0.07450571730128164 0.02312714384220202 0.05650683335977873 0.03023420231751793 -0.08752469704926766 -0.007519298052115611 -0.06768293788318322 0.023118936552548194
0.0021312963616613306 -0.08856997761061071 0.0002539714475482818 0.01874222498765772 0.06948438463225896 0.04542454331780159 -0.08063808787584661 0.04857033946226176
0.0812882302652649 -0.010353940653293203 -0.07300099884716363 0.033573463488488275 0.04118837765515164 -0.0017074306535618256 -0.04839816720196065 -0.00414667877696287
-0.07438604273843524 -0.044591622457488524 -0.08223897675669142 0.07497987197044974 0.011598030858943606 -0.0730588747257638 0.018517725590901715 0.012248967240646363
0.03435758654842441 0.028644932219254154 -0.07499518311543944 0.014409370196603405 -0.07867311407028506 -0.013174337339462522 -0.01872662577096197 0.0808455208345538
-0.023682287723680473 0.03976131427269898 0.01888338631312568 -0.0014610439086282512 -0.0068113604193536376 0.012058242296076452 -0.06886602178035794 0.012851183917219011
0.05636977443656831 0.05070034879932318 0.07687057547695701 -0.04383482095240339 0.06647047298604276 0.08068836053649499 -0.049173164841071794 0.059909723043747684
-0.03194408311332742 -0.06814504417750067 0.07589304500849285 -0.08540850684740031 0.0183629874412643 -0.07788946279396122 -0.06006055783815013 -0.029657901430144948
-0.08085616682635961 -0.03301704386772272 -0.013939079237794444 -0.0427062985750529 0.01565887731759058 0.012567909851573897 0.0034814041925670253 0.07978493518402933
0.04219925194436726 -0.06519539077517639 -0.0653835775696388 -0.03317361993911149 -0.03227171519474734 -0.027840346274897794 0.0422838351528826 0.0098415392543513
0.0719008196593605 -0.0068731391513042195 -0.07751436493015539 0.05002893372307095 -0.004427674075882626 0.035597115891857475 -0.030970648572921797 -0.022488416585672827
-0.011946879479211109 0.023359061062966036 -0.001507379057350669 -0.044437770759234455 -0.06231290077624274 0.06352436268091159 0.017407857904845156 0.027361800610900766
0.07978526089328154 -0.04507229828646574 0.0386844534408264 0.04021604217950685 -0.01646411404441013 -0.0034850055111820682 -0.013834842444756024 -0.05699986338793207
-0.045357831788552204 -0.08887642799491725 0.023815980364213146 -0.017803342722253285 0.05834773158399591 0.0040394685096265676 -0.07785175688628859 -0.024932487189505664
-0.012784551700803656 -0.031171640244619728 -0.08154634055547656 -0.024035590422222725 -0.00969294136888886 -0.04592575971293284 -0.033264550184994586 -0.026472715646674624
-0.02152355624564828 -0.03566920724278706 0.08474286756292275 0.03860345460772084 -0.0019139026274287985 0.08921975088085814 -0.02674720868061542 -0.02929438715808684
0.036188062632408105 0.08440499760190691 0.04993641267198724 -0.034708438058046714 -0.023877019926040258 -0.054834386912382876 0.019228689934490173 -0.03487762535739642
-0.04057776502192693 0.010055134423497827 0.06422710731793992 -0.04659208378685651 0.03843912735294493 0.022543347355119286 0.010354810253111232 -0.05671002490888812
00000000: c02c 9eb5 71b2 a2bf 0807 c0f8 a6f7 9cbf
00000010: e2c6 7dc1 485d a03f 7edd 1291 9d6b 9cbf
00000020: 13ea 16ae 6610 b23f ffd8 b5e8 5f16 b5bf
00000030: 0000 f02c c662 3b3f fde1 2ec9 5d2f b3bf
00000040: 0a57 6b48 ecee a13f 41a6 7104 6024 b23f
00000050: 1e9c b265 56ce b5bf 562a 8224 3d65 a2bf
00000060: bc8f fe90 89c1 a9bf 4c57 1324 8f27 95bf
00000070: 88ed 67f2 6916 a9bf 6100 5dda 87ab b63f
00000080: a902 86cf 13fc b63f aded 0aab 3994 b23f
00000090: e27c 3708 cc9c ab3f 55f0 0c55 8214 b63f
000000a0: 59e2 4c26 2839 b5bf e0d5 04c2 5f97 71bf
000000b0: 3406 ee00 21d6 adbf c314 800f 21d6 a5bf
000000c0: 51b3 bf64 678f b53f 00f2 f16b 3150 83bf
000000d0: 546e bfe5 58b9 a13f 95ef 9c7d 2371 abbf
000000e0: 20f0 cc52 8ac2 a1bf 1933 3b8a c2d2 a0bf
000000f0: 4054 b3df 506c a4bf 7132 76cd 6958 b43f
00000100: 524e a5b7 e753 a43f 54b5 c5a9 bcaf b4bf
00000110: 7c56 01af b53e 96bf 444c e588 ea06 9d3f
00000120: b2d1 3e15 4fc3 b3bf bc10 d2e1 006c 9d3f
00000130: 0ef1 fd57 7bc9 ac3f 6a60 b9af 36cc a73f
00000140: 42b9 7355 814b a93f a6cf ad99 3ca1 a03f
00000150: 28ec fe4b cc88 843f 52b6 d301 5f41 a03f
00000160: b11f 31cb 04fb b0bf da5e e2b3 64b1 a0bf
00000170: 9edd 6a6b 6ab7 b2bf 2a31 dcab b4be b5bf
00000180: 306f 544f f734 933f 3f36 1a07 1adc a6bf
00000190: 62f8 cf03 13be ac3f 9f8d 77ef 9e46 b5bf
000001a0: 765d 461a c230 acbf a19c 97c7 777d b13f
000001b0: 0060 3eb2 d641 8b3f 6027 0230 00c7 87bf
000001c0: c676 6c9b 6851 a43f 2e9e dc06 6f49 a63f
000001d0: a292 0e5f ddc8 a23f 0a87 763d 08f0 a83f
000001e0: ce81 2751 c4be a33f 60cb 6d3e cbee 823f
000001f0: 8a59 b9ca 36f9 afbf 24d4 f3dc 5855 b1bf
00000200: 97d0 df89 f198 b43f 54eb 7051 51e7 93bf
00000210: 91c9 21e6 a547 b0bf 90ca fcd1 b566 a7bf
00000220: 0f5b b4d5 7581 b03f 727f 96de 7fee a73f
00000230: 62de 3eb3 11c1 ab3f f209 7997 aeb2 b4bf
00000240: 67d8 9b2f 9d37 b1bf 5f1a 57b4 777e abbf
00000250: d8e7 a8c7 5200 9dbf 45bd 78cf 9ef7 b0bf
00000260: 917e 0d4f 22b9 b23f 4206 5814 ddf8 a93f
00000270: 80c0 b74e e318 60bf 0f1d 74e8 2ea0 a5bf
00000280: c045 e604 0f02 85bf 80b4 4b84 4c5a 513f
00000290: 2062 e87d 5ce4 6bbf 4a0e 365f 39f2 aabf
000002a0: 0053 a1c4 65d8 6abf e893 4b4a 52ca abbf
000002b0: 57a7 b0e7 0aa0 b3bf 6443 ded1 5e5e a9bf
000002c0: aa0c 8802 9064 af3f e86f 0596 2960 92bf
000002d0: d504 3380 c224 b53f bd85 9e14 b80a b73f
000002e0: 8a0e df7d 3e32 b4bf aa16 00c9 5d39 af3f
000002f0: 6052 a26c 2418 a6bf 7a54 112e 08a8 ac3f
00000300: 70cb 92a8 29a8 84bf 10f0 76b1 5280 70bf
00000310: 8a28 bc10 f491 b3bf 9c5a 0807 52fc a3bf
00000320: 7ec7 c104 2db0 ac3f 18ec 69e9 3e69 9c3f
00000330: 5069 ee7f 655f 87bf a04f e2f4 5333 aebf
00000340: 0ceb f99f 2547 b5bf 488c 82b8 ad2f 9f3f
00000350: 5b7e 71cd c84e b23f d0a4 d013 4be3 973f
00000360: 6366 3711 33f6 b4bf fca9 7f8c 5e83 b3bf
00000370: 1685 fe77 b7bc a23f 876f 8d54 27e1 b23f
00000380: f88c 2c83 ce12 b3bf 38ff ce59 a4ae 973f
00000390: 46c1 8fb2 76ee ac3f 7c92 b2f8 b6f5 9e3f
000003a0: d63d 6bbf 0468 b6bf 903b 9033 8ecc 7ebf
000003b0: c699 b444 ab53 b1bf 8c5e a591 7dac 973f
000003c0: 2044 7c05 a775 613f f9b9 3ea5 85ac b6bf
000003d0: 00d3 b30f efa4 303f 544b 816d 2931 933f
000003e0: 5b07 9487 bac9 b13f c6ac f8bf e241 a73f
000003f0: c21d 3d9e b2a4 b4bf 9291 1727 36de a83f
00000400: e1fd 8932 4ecf b43f c0c9 ec63 7234 85bf
00000410: 02b8 9f86 31b0 b2bf 989c 647f 8a30 a13f
00000420: 0623 029e a416 a53f 0098 4db4 7bf9 5bbf
00000430: 9e34 a302 a5c7 a8bf 20c3 be9b 1bfc 70bf
00000440: ec26 d7b4 f60a b3bf e5cf 4290 b6d4 a6bf
00000450: e661 a013 9d0d b5bf 4faa f881 e131 b33f
00000460: f8b4 e559 b5c0 873f 1a35 a185 fcb3 b2bf
00000470: 84a5 3c87 4ff6 923f 30b4 aa8d fc15 893f
00000480: 38a0 304d 5197 a13f 88b3 4fdc 1855 9d3f
00000490: b39d d662 e232 b3bf 50c1 00ee a882 8d3f
000004a0: 45a0 01d4 eb23 b4bf 50dc 27a0 25fb 8abf
000004b0: c4ba 0095 122d 93bf e332 03c4 4ab2 b43f
000004c0: 1018 126d 2b40 98bf 0afa e450 985b a43f
000004d0: 7c45 9c9a 2a56 933f 8098 8ef3 0ff0 57bf
000004e0: 30d7 e0a3 3ae6 7bbf 889c 78e2 fdb1 883f
000004f0: c82d 5a1f 34a1 b1bf a05c 1db5 b851 8a3f
00000500: fe3b 60c3 7fdc ac3f 424f fa67 65f5 a93f
00000510: 33bf b23f caad b33f 0a4b d584 8471 a6bf
00000520: adec 9f7b 3504 b13f f10e ac0d fea7 b43f
00000530: dd9b aa9d 392d a9bf 76e1 5eba 7cac ae3f
00000540: 317e 8b90 f95a a0bf a078 2020 f471 b1bf
00000550: 4b2a 4e02 ba6d b33f e8b3 b5f7 54dd b5bf
00000560: c07f 113a bfcd 923f be2f 6757 90f0 b3bf
00000570: a284 63e7 41c0 aebf ec83 d712 a45e 9ebf
00000580: 7dfa 3260 fdb2 b4bf ecb3 3e27 9ce7 a0bf
00000590: 7091 b38b 178c 8cbf ac16 6d97 99dd a5bf
000005a0: 506f e277 e108 903f 182b 554e 34bd 893f
000005b0: e0e5 d6a4 0885 6c3f db31 5417 c96c b43f
000005c0: c28f 08ee 239b a53f e4b4 3a27 a5b0 b0bf
000005d0: 7469 5b67 fabc b0bf 1ff3 74f9 21fc a0bf
000005e0: ddcc b112 eb85 a0bf d23d 0a03 2e82 9cbf
000005f0: b21d 4312 3aa6 a53f 50fc ea09 cd27 843f
00000600: 9317 fe94 1768 b23f 40e7 023e 0227 7cbf
00000610: c760 583e fbd7 b3bf b280 6374 649d a93f
00000620: 00f7 a6b5 c022 72bf 36c6 2c01 c939 a23f
00000630: 4cc4 060b c5b6 9fbf 28df 1817 3407 97bf
00000640: b03f 3805 9b77 88bf a0a4 520d 70eb 973f
00000650: 407a 41f0 67b2 58bf fa71 3c28 8cc0 a6bf
00000660: b0dc e7fd 79e7 afbf dbb8 36f4 2143 b03f
00000670: cc32 9491 5dd3 913f a04b 225b bb04 9c3f
00000680: 094e 3d8e ce6c b43f 5e1d 315e b713 a7bf
00000690: 22b2 c8dc 72ce a33f e6fe de73 3297 a43f
000006a0: b46f 83fd f7db 90bf 600f 4d16 968c 6cbf
000006b0: 60aa c31e 7155 8cbf 8259 410a 162f adbf
000006c0: 2b71 4c48 2439 a7bf a19b 9f07 9bc0 b6bf
000006d0: 5859 2563 3763 983f 4898 011b 0a3b 92bf
000006e0: b6e9 e5fd c0df ad3f 10e9 4592 b08b 703f
000006f0: bc43 c3bd 17ee b3bf 58f3 58e4 e687 99bf
00000700: 187f 977b c92e 8abf 243d a75d 75eb 9fbf
00000710: fd53 cb91 38e0 b4bf 08c8 362b c99c 98bf
00000720: f88d 7391 e4d9 83bf e9a1 05c8 9483 a7bf
00000730: 9947 5216 0d08 a1bf 3c4e c1df a91b 9bbf
00000740: 60b9 ac68 450a 96bf 1afe 29fd 3b43 a2bf
00000750: e383 c064 b5b1 b53f 2e06 1bfe d4c3 a33f
00000760: 007f 524c 7d5b 5fbf 13c8 3008 1bd7 b63f
00000770: 208d 2bca 9e63 9bbf bc8d 330b 59ff 9dbf
00000780: aa09 06e3 3d87 a23f b9b3 51e0 909b b53f
00000790: a28a 9cf6 4391 a93f e487 b5ec 4dc5 a1bf
000007a0: 3448 d5ae 3773 98bf 2444 f8b4 4013 acbf
000007b0: 307c a789 afb0 933f 4958 8be8 7adb a1bf
000007c0: b58a 6ddb 9bc6 a4bf 88e4 0b4c c997 843f
000007d0: f17d 720d 3071 b03f bdec 3be8 eada a7bf
000007e0: 3a40 bc15 4bae a33f b8c9 876e 9a15 973f
000007f0: f8ad 251b e734 853f 0394 adac 1809 adbf
